fsdd_tinycnn.pt (torch, 144601 bytes, 37 tensors)

stem.0.weight f4 [32, 1, 3, 3]
0	0xbd0dea6a	-0.034647383
1	0xbd32bad0	-0.04363519
2	0xbdb0811b	-0.08618375
3	0xbdd63472	-0.10459222
4	0xbd0674d9	-0.03282628
5	0x3e476a93	0.19474249
6	0xbe346c51	-0.17619444
7	0x3d8d09fb	0.06886669
8	0xbe91a8f8	-0.28449225
9	0xbd5298e7	-0.05141535
10	0x3d1c3a7d	0.038141716
11	0xbe25c27d	-0.16187473
12	0x3e8ad532	0.2711578
13	0xbe12c8d5	-0.14334424
14	0x3c671f20	0.014106542
15	0x3e1b3d1b	0.15160029
16	0x3e91352a	0.28360873
17	0x3e1e698c	0.1546995
18	0x3e2ee7b4	0.17080575
19	0x3e69ae79	0.22820462
20	0x3dc6a8ed	0.09700189
21	0x3e69bee5	0.22826727
22	0x3d513843	0.051079046
23	0x3ea94ed2	0.33067948
24	0x3e9fa6ff	0.31182095
25	0xbe1b518e	-0.1516783
26	0xbda89f44	-0.082335025
27	0xbe07e835	-0.13272174
28	0x3e828536	0.25492257
29	0x3e99f50e	0.30069774
30	0xbd995b69	-0.07488138
31	0x3d9ff263	0.078099035
32	0x3de18af2	0.1101283
33	0xbe6e303f	-0.23260592
34	0xbe6412e4	-0.22272831
35	0x3e05873a	0.13039866
36	0xbbea3ec7	-0.007148597
37	0xbe460d73	-0.19341068
38	0x3e41cf17	0.18926655
39	0x3d632438	0.055454463
40	0xbe56d843	-0.20980935
41	0xbe0abd32	-0.13548735
42	0xbe37461a	-0.17897835
43	0xbe5f7ccf	-0.21824954
44	0xbe401905	-0.18759544
45	0x3e86f06c	0.26355302
46	0xbe3c6dd9	-0.18401279
47	0xbd9eeded	-0.077602245
48	0x3eae9419	0.34097365
49	0xbddc180e	-0.107467756
50	0x3e361b07	0.17783748
51	0x3dec2621	0.1153071
52	0x3d80a2fd	0.062810875
53	0xbe4d1595	-0.20027764
54	0x3e42dd8b	0.19029824
55	0x3e1e0dc0	0.15434933
56	0xbe0abe1b	-0.13549082
57	0x3e3564e5	0.1771427
58	0x3e62994f	0.22128795
59	0x3cd695a6	0.026194405
60	0x3e12f016	0.14349398
61	0x3d352a89	0.044230018
62	0x3e81ca7e	0.25349802
63	0x3e3830ef	0.17987417
64	0x3e575d7e	0.21031758
65	0xbc94427c	-0.018098108
66	0x3e47c7ac	0.19509763
67	0x3bd128fd	0.00638306
68	0x3e4c8f62	0.19976571
69	0x3ca5167b	0.020152321
70	0x3e4c0bfd	0.19926448
71	0x3e8f2a06	0.2796175
72	0xbe75c4a5	-0.24000795
73	0xbe53630a	-0.20643249
74	0x3dbf33e8	0.09336072
75	0x3d9ef54d	0.07761631
76	0xbe550c7c	-0.20805544
77	0x3ddc99af	0.107715
78	0x3e8a085a	0.26959497
79	0xbe841396	-0.25796193
80	0xbe777e1b	-0.24169199
81	0x3d66f5ab	0.05638663
82	0x3ea6df58	0.32592273
83	0x3ed2ae06	0.41148394
84	0x3db5fb34	0.08885804
85	0x3ea17136	0.31531686
86	0x3dd6baed	0.10484872
87	0xbe9318f4	-0.28729975
88	0x3e1f569a	0.1556038
89	0xbe9becd4	-0.30454123
90	0x3e380313	0.17969923
91	0x3e33188c	0.17489833
92	0xbd944282	-0.07239248
93	0xbe9debda	-0.30844003
94	0xbeabe14f	-0.33570334
95	0xbdbf4f49	-0.09341294
96	0xbe3e6185	-0.18591888
97	0xbda08c44	-0.078392535
98	0xbd412c01	-0.047161106
99	0xbe985f86	-0.2976038
100	0xbeb43786	-0.3519861
101	0xbe1fa2f0	-0.155895
102	0xbda466ed	-0.08027444
103	0x3d35c1fe	0.04437446
104	0xbde1f2bc	-0.11032626
105	0xbe744c24	-0.2385717
106	0x3d2903a2	0.04126323
107	0xbe4981e1	-0.19678451
108	0xbc514765	-0.012773369
109	0xbe984a71	-0.29744294
110	0xbe090b51	-0.13383223
111	0x3e2170b7	0.15765654
112	0x3e2d7db1	0.16942479
113	0x3d313948	0.04326752
114	0x3e1d2a3e	0.15348145
115	0x3ebeaa98	0.37239528
116	0xbe6369b8	-0.22208297
117	0xbe0c9f7e	-0.13732716
118	0x3d883fee	0.066528186
119	0x3ebf370d	0.37346688
120	0x3e82a153	0.25513706
121	0x3e70b0ce	0.23504946
122	0x3e8e78ce	0.27826542
123	0x3ec50d5b	0.38486752
124	0x3e383011	0.17987086
125	0xbdf2e145	-0.11859373
126	0x3e591f62	0.21203378
127	0xbd21ef38	-0.039534777
128	0xbe182c86	-0.14860734
129	0x3e9aacc6	0.3020994
130	0xbd8ba338	-0.06818241
131	0xbe552244	-0.20813853
132	0x3e2868d1	0.16446234
133	0xba8efe18	-0.0010909466
134	0x3d981869	0.07426531
135	0xbe8188a9	-0.25299576
136	0x3d9c180c	0.07621774
137	0x3eb66348	0.3562262
138	0x3d018ef0	0.031630456
139	0xbd6c720e	-0.05772596
140	0x3e8ee3ba	0.27908117
141	0x3e9c16bf	0.30486104
142	0x3e5dc2d7	0.21656357
143	0xbe05e246	-0.13074598
144	0xbe03a81d	-0.12857099
145	0x3dc5bcfb	0.09655186
146	0xbe034c97	-0.12822185
147	0x3e482067	0.1954361
148	0xbe336fa8	-0.17523062
149	0xbe0fbebc	-0.14037603
150	0xbebc05f7	-0.367233
151	0xbd814f63	-0.0631397
152	0x3e6ccbe6	0.23124656
153	0x3e69675f	0.22793339
154	0xbdd14f10	-0.10220158
155	0x3dba0ae1	0.09084106
156	0x3e655132	0.22394255
157	0x3e2c9f8c	0.16857737
158	0x3df322eb	0.118718944
159	0xbe0fa40f	-0.14027427
160	0xbe29b7c4	-0.16574007
161	0xbd5bdb61	-0.053676013
162	0xbde31996	-0.110888645
163	0xbd00143c	-0.031269297
164	0xbe79d258	-0.24396646
165	0x3e2d8009	0.16943373
166	0xbce8dbd3	-0.028425133
167	0x3e1b7173	0.15179996
168	0xbe7c498c	-0.24637431
169	0xbe91040e	-0.28323406
170	0x3bfa7d7c	0.0076443534
171	0x3e507d4b	0.20360295
172	0xbdd90dfc	-0.105983704
173	0x3e53b0f4	0.20672971
174	0x3e82626d	0.25465718
175	0xbd8adf9d	-0.06780932
176	0xbe160884	-0.14651686
177	0xbea16dea	-0.3152917
178	0xbe4345d4	-0.19069606
179	0xbe05bdfb	-0.13060753
180	0xbe1425e5	-0.1446758
181	0x3e6845bc	0.22682852
182	0x3e8263f4	0.25466883
183	0x3e5d7db9	0.2162999
184	0x3d5095c1	0.050924066
185	0x3c84d99d	0.016217047
186	0xbea6de74	-0.32591593
187	0x3e379e76	0.17931542
188	0xbea36683	-0.31914148
189	0xbd89d306	-0.06729703
190	0x3dfa62c6	0.12225871
191	0xbe05b59d	-0.13057561
192	0xbe0b661e	-0.13613173
193	0x3e9a4e27	0.3013775
194	0xbe7a5a27	-0.24448453
195	0x3e19e3bd	0.15028282
196	0x3e5c17c1	0.21493436
197	0xbdf66c44	-0.12032369
198	0x3d5d10f1	0.053971235
199	0x3e02cec2	0.12774184
200	0xbe879407	-0.26480123
201	0xbe791274	-0.24323446
202	0xbe2cfdbf	-0.16893671
203	0xbe0dabdf	-0.13835095
204	0xbe63184f	-0.22177242
205	0xbe2bcd4b	-0.16777532
206	0x3d55cada	0.052195407
207	0xbe68c7db	-0.22732489
208	0xbe711bd7	-0.23545776
209	0xbdb30809	-0.08741767
210	0xbe4030cf	-0.18768619
211	0x3e9d2c0b	0.30697665
212	0x3eb534ad	0.3539175
213	0x3e848c85	0.25888458
214	0x3e8514f0	0.25992537
215	0x3e3493a5	0.17634447
216	0x3e1eafec	0.15496796
217	0xbd933ce9	-0.07189352
218	0xbe85911b	-0.2608727
219	0x3e4e757b	0.20162003
220	0xbe353baf	-0.17698549
221	0xbda95b2c	-0.08269343
222	0xbe2b75c5	-0.16744144
223	0x3e8362b9	0.25661257
224	0x3e82e5a3	0.25565824
225	0x3db4d796	0.08830182
226	0xbe01d453	-0.12678652
227	0x3e1ee55a	0.15517178
228	0xbea6193e	-0.32441133
229	0xbd97a0ef	-0.074037425
230	0xbd32e078	-0.0436711
231	0xbeb3e098	-0.3513229
232	0x3d5522e9	0.052035246
233	0xbdd8bd32	-0.10582961
234	0xbe1a7639	-0.15084161
235	0x3e5c12a3	0.21491484
236	0xbd7fffa9	-0.062499676
237	0x3c0c5b90	0.008566752
238	0x3e3d32c3	0.18476395
239	0x3da1cf97	0.07900923
240	0xbeadf584	-0.33976376
241	0x3e8fd791	0.28094152
242	0xbeab08e5	-0.33405223
243	0xbe57cba9	-0.21073784
244	0xbc8b07c4	-0.016971476
245	0x3e0b7d67	0.13622056
246	0xbc819c7d	-0.01582169
247	0x3e1b50ad	0.15167494
248	0x3ea0aad8	0.31380343
249	0xbe46bc1c	-0.19407696
250	0x3dfaa23f	0.12237977
251	0xbe8e017d	-0.2773551
252	0xbdba17ba	-0.09086557
253	0xbe1c78cb	-0.15280454
254	0x3e0da7d0	0.13833547
255	0xbdb666ca	-0.08906324

stem.1.weight f4 [32]
0	0x3f870de7	1.0551118
1	0x3f6f0d67	0.93379825
2	0x3f826186	1.0186012
3	0x3f773c0f	0.9657602
4	0x3f739069	0.9514223
5	0x3f811392	1.0084097
6	0x3f81c94f	1.013956
7	0x3f6db1df	0.92849535
8	0x3f82802e	1.0195367
9	0x3f80379b	1.001697
10	0x3f808e08	1.0043344
11	0x3f6ea24a	0.93216383
12	0x3f71bca4	0.9442847
13	0x3f6362fe	0.88822925
14	0x3f64a9e0	0.8932171
15	0x3f8053ef	1.0025615
16	0x3f600ec2	0.8752252
17	0x3f779dc7	0.96725124
18	0x3f7f8a11	0.9982005
19	0x3f808b31	1.0042478
20	0x3f7eab2a	0.99479926
21	0x3f7d9d9a	0.99068606
22	0x3f77d34e	0.968068
23	0x3f68100e	0.906495
24	0x3f695e1d	0.9115923
25	0x3f7a98e0	0.9788952
26	0x3f7610a1	0.96119124
27	0x3f838141	1.027382
28	0x3f61a788	0.8814626
29	0x3f858daf	1.0433863
30	0x3f5d2771	0.8638831
31	0x3f6d99f9	0.9281307

stem.1.bias f4 [32]
0	0xbb4ad1c1	-0.0030947777
1	0xbd8660fd	-0.06561468
2	0xbb52f4bf	-0.0032189337
3	0x3d1b462a	0.03790871
4	0xbd7627b6	-0.060096465
5	0x3c0e6771	0.008691655
6	0xbc635f01	-0.013877631
7	0xbd89de71	-0.067318805
8	0x3b286063	0.0025692217
9	0x3c86c099	0.01644926
10	0x3cbd1a39	0.023083793
11	0x3d878768	0.066176236
12	0x3d5df0e8	0.054184824
13	0x3db8fd55	0.09032694
14	0xbdb89222	-0.090122476
15	0x3b6eca9b	0.003643668
16	0x3dde5463	0.10855939
17	0x3cf0d0f2	0.029396508
18	0x3c8779c7	0.01653756
19	0x3b659ea3	0.0035037182
20	0xbc86ddbc	-0.016463153
21	0xbce17e0a	-0.02752592
22	0x3d380507	0.04492667
23	0x3d8e7206	0.06955342
24	0x3da2f48d	0.079568006
25	0x3cf1eb29	0.029531078
26	0xbd1fbb71	-0.038997117
27	0xbc60ccbb	-0.013720687
28	0xbdc67bc3	-0.096915744
29	0x3bfebad4	0.0077737365
30	0xbde7f467	-0.11325913
31	0x3d8d066a	0.06885989

stem.1.running_mean f4 [32]
0	0xb98c8953	-0.00026805195
1	0xbc227dcf	-0.00991769
2	0x3c8e82a4	0.017396279
3	0x3c8e2b39	0.017354595
4	0x3bb190cc	0.0054188725
5	0x3b82bcdd	0.0039897994
6	0x3b3385d1	0.0027392993
7	0x3bff17ca	0.0077848183
8	0xbb4361ef	-0.0029813012
9	0x3ccab9dc	0.024746828
10	0x3b548d67	0.0032432915
11	0xbc8e1903	-0.01734591
12	0xbc5f99e9	-0.013647535
13	0x3c22e38c	0.009941947
14	0xbb55496a	-0.003254498
15	0x3b8ee7cc	0.0043611284
16	0xbb084279	-0.0020791574
17	0x3c6ec5b5	0.014573504
18	0x39b0ae6f	0.000336993
19	0x3c78f770	0.015195712
20	0x3c4d3389	0.012524494
21	0xbc3a0d90	-0.011355773
22	0xbb8b59fc	-0.0042526703
23	0xbc6cf8d5	-0.014463623
24	0xbc12166f	-0.008916481
25	0x3b80b484	0.003927769
26	0x3a9d2b2a	0.0011991013
27	0x3bb15ea1	0.005412892
28	0x3c2be2ae	0.010491056
29	0x3c3f363a	0.011670643
30	0x3c8d7844	0.017269261
31	0xbc841b5f	-0.016126333

stem.1.running_var f4 [32]
0	0x3e6902bd	0.22754951
1	0x3ea5623d	0.32301512
2	0x3f9eee53	1.2416481
3	0x3daad5ad	0.08341537
4	0x3f43e2cd	0.76517946
5	0x3e2e6984	0.17032439
6	0x3f88e8f5	1.0696093
7	0x3fbc3841	1.4704667
8	0x3eb1f6de	0.34758657
9	0x3f30cdd8	0.6906409
10	0x3f176efa	0.5915371
11	0x3fca0124	1.5781598
12	0x3dc66c60	0.0968864
13	0x40074d35	2.1140873
14	0x3dea1be9	0.11431105
15	0x3f223c42	0.63373196
16	0x3e59ca95	0.21268685
17	0x3dfdd653	0.12394395
18	0x3eb00e4f	0.34385917
19	0x3dfc5ddc	0.1232259
20	0x3d2c892a	0.042122997
21	0x3ceeb069	0.029136853
22	0x3f6073d5	0.87676746
23	0x3eefb084	0.46814358
24	0x3cd36f77	0.025809987
25	0x3f082658	0.5318351
26	0x3d0a056a	0.03369657
27	0x3cbf5e66	0.023360442
28	0x3ea6c02a	0.32568485
29	0x3ebb9fb6	0.36645287
30	0x3f854d04	1.0414128
31	0x3d344045	0.044006605

b1.net.0.weight f4 [32, 1, 3, 3]
0	0x3e3a2e0c	0.18181628
1	0x3caeb2d8	0.021325514
2	0x3dbc587f	0.09196567
3	0x3ea9b085	0.33142486
4	0x3df23dd1	0.11828197
5	0x3da5c10e	0.08093463
6	0x3e772daa	0.24138513
7	0xbe938849	-0.28814915
8	0xbdc6ab5c	-0.09700653
9	0x3ea73ef5	0.3266522
10	0x3e3fb7f1	0.18722512
11	0x3e67e72f	0.22646783
12	0xbd83d9d5	-0.064380325
13	0x3e866d31	0.2625518
14	0xbd2c4f3c	-0.04206775
15	0xbe743898	-0.23849714
16	0xbe9bea1c	-0.3045205
17	0xbe221a02	-0.15830234
18	0x3e682f1e	0.22674224
19	0x3d28f95b	0.04125343
20	0xbe212b8a	-0.15739265
21	0xbda782fb	-0.081792794
22	0x3dc5eac2	0.09663917
23	0xbe272202	-0.16321567
24	0x3e03cd24	0.12871224
25	0xbe778563	-0.24171977
26	0xbd94aba6	-0.07259302
27	0xbe79d87e	-0.24398991
28	0x3e0dfa69	0.13865055
29	0xbda6333a	-0.081152394
30	0x3ca419b1	0.020031782
31	0xbc277061	-0.010219664
32	0xbbd2beaf	-0.0064314227
33	0x3e3eb06b	0.18621986
34	0xbe4d5110	-0.20050454
35	0x3e00d4e2	0.12581208
36	0x3e1667d2	0.14688042
37	0xbe71c343	-0.23609643
38	0x3e751e30	0.23937297
39	0xbdf54526	-0.1197608
40	0x3dad9977	0.08476537
41	0x3cf733f7	0.030176146
42	0x3dd8b8cc	0.10582122
43	0xbc45f983	-0.012083414
44	0x3e5736cc	0.21016997
45	0x3cc2b5e8	0.02376838
46	0xbea1f866	-0.31634825
47	0xbe303cb7	-0.17210661
48	0xbe374627	-0.17897855
49	0x3e31f521	0.17378666
50	0xbecc84bd	-0.3994502
51	0x3cfc79e0	0.030819833
52	0xbd4c99fd	-0.049951542
53	0xbe8c65eb	-0.27421507
54	0xbda471ac	-0.08029494
55	0x3db08f18	0.08621043
56	0xbe1f645f	-0.15565632
57	0xbd22b5ce	-0.039724164
58	0x3d82712f	0.06369244
59	0x3e325a7c	0.1741733
60	0xbdda7821	-0.10667444
61	0xbe385b5c	-0.18003601
62	0x3e852098	0.2600143
63	0x3cef7096	0.02922849
64	0xbe1ea4a3	-0.15492491
65	0x3ddbcf7f	0.10732936
66	0x3e3b634f	0.18299602
67	0xbe18750f	-0.14888404
68	0x3d9c7808	0.07640082
69	0xbe85ad2a	-0.26108676
70	0x3e62a813	0.22134428
71	0x3e0ebfc2	0.13940337
72	0xbe19e48e	-0.15028593
73	0xbe809be0	-0.25118923
74	0x3e505364	0.20344311
75	0xbe4051d5	-0.18781216
76	0x3d7b17af	0.061301883
77	0xbecaac61	-0.3958464
78	0xbde253b4	-0.11051121
79	0xbe2201f9	-0.15821065
80	0xbe84dc6e	-0.25949425
81	0x3e8b06a3	0.271535
82	0x3d89d214	0.06729522
83	0xbcbfa8d6	-0.023395937
84	0x3e56399b	0.20920412
85	0x3d67df50	0.05660945
86	0xbe2182fb	-0.15772621
87	0xbd2818f5	-0.041039426
88	0xbe0b42d1	-0.13599707
89	0x3d96bea3	0.0736058
90	0xbdc03f41	-0.09387065
91	0x3eaa69e5	0.33283916
92	0x3e546318	0.20740926
93	0x3e81f204	0.25379956
94	0x3cd0568f	0.0254319
95	0xbe809963	-0.25117025
96	0xbd90bd96	-0.07067411
97	0xbebef777	-0.37298176
98	0xbc128bcd	-0.008944464
99	0x3e8a8837	0.2705705
100	0xbe326d54	-0.17424518
101	0xbeaa8c52	-0.3331018
102	0x3dadb12d	0.08481059
103	0xbde6b95f	-0.112658255
104	0xbe4269d5	-0.18985684
105	0x3e356585	0.17714508
106	0xbdcb9d4d	-0.09942112
107	0xbe686056	-0.22692999
108	0xbdfec1d2	-0.12439312
109	0x3d98ca5b	0.07460471
110	0xbc3a3718	-0.011365674
111	0xba601fa6	-0.0008549638
112	0x3e0a8c5d	0.13530107
113	0xbe488b16	-0.19584307
114	0x3e5b25af	0.21401094
115	0xbe067b3d	-0.13132949
116	0xbec771a4	-0.38953888
117	0x3dcfe1e3	0.10150506
118	0xbda5c5d6	-0.08094375
119	0x3cb43f5d	0.02200287
120	0x3ebbf5c5	0.36710945
121	0xbe290c18	-0.1650852
122	0xbe969cde	-0.29416555
123	0x3d7fdbea	0.062465586
124	0xbc24612e	-0.010032935
125	0xbdf112d1	-0.11771167
126	0xbdfd8aa4	-0.12379959
127	0xbe2dc29f	-0.16968773
128	0xbd80973d	-0.062788464
129	0x3e25ffa1	0.16210796
130	0xbd906b6d	-0.0705174
131	0x3e61a855	0.2203687
132	0x3eb31f38	0.34984756
133	0x3eb9cbd1	0.36288312
134	0x3e5a84d3	0.21339731
135	0x3bb489da	0.0055095972
136	0xbda1cea6	-0.07900743
137	0xbe6305f2	-0.22170237
138	0x3e7696df	0.2408099
139	0xbda98065	-0.082764424
140	0xbd46c1d0	-0.048524678
141	0x3e9fd51d	0.3121728
142	0x3e9659c2	0.29365355
143	0x3d7aa0bf	0.061188456
144	0x3e99b9d6	0.30024594
145	0x3e47bb13	0.19504957
146	0xbe1a7c8d	-0.15086575
147	0xbc1f5589	-0.009724983
148	0xbe02c39a	-0.12769929
149	0xbd756211	-0.059907977
150	0xbe9d4218	-0.30714488
151	0xbe8a022c	-0.26954782
152	0x3d727995	0.05919798
153	0x3e72f16d	0.23724909
154	0xbe74e4a4	-0.23915344
155	0xbeb4bef9	-0.3530195
156	0xbe47d2c9	-0.19514002
157	0xbe1fb20e	-0.15595266
158	0x3e993a4a	0.29927284
159	0x3e2e1960	0.17001867
160	0x3e8551af	0.26038882
161	0x3e70152c	0.23445576
162	0xbe91ea35	-0.28498998
163	0xbddae472	-0.10688104
164	0xbea3f6ee	-0.3202433
165	0xbe67e4da	-0.22645894
166	0xbd997472	-0.07492913
167	0xbdc5d232	-0.09659232
168	0x3e956156	0.29175824
169	0xbe72cdc4	-0.23711306
170	0x3ebc8973	0.36823615
171	0x3e1979b9	0.1498784
172	0x3dc92b37	0.09822696
173	0x3dcc52ee	0.09976755
174	0x3beccca1	0.007226542
175	0xbdf4b7d4	-0.11949125
176	0xbdb5a878	-0.088700235
177	0x3ed0edf0	0.40806532
178	0x3dc47395	0.09592358
179	0x3eb04672	0.34428746
180	0xbe12d64d	-0.14339562
181	0x3d5f3803	0.054496776
182	0x3d228faf	0.03968781
183	0x3e54e39f	0.20789956
184	0xbe8abf8c	-0.27099264
185	0x3d2d9e99	0.04238758
186	0xbe318c49	-0.17338671
187	0x3e6d8da3	0.23198561
188	0xbeafd7cc	-0.34344327
189	0xbe3215cc	-0.17391127
190	0xbe15d6cf	-0.14632724
191	0xbdc72c39	-0.09725232
192	0xbe78ed21	-0.24309207
193	0xbe031241	-0.12799932
194	0xbe7d1784	-0.24716002
195	0xbe009d5d	-0.1256003
196	0xbeb7b72b	-0.35881934
197	0xbeaa92f0	-0.3331523
198	0xbd01872d	-0.031623054
199	0xbe5c8800	-0.21536255
200	0xbe785453	-0.24250917
201	0x3e959705	0.2921678
202	0x3e259f98	0.16174161
203	0x3d1d1b9b	0.038356405
204	0xbd88e457	-0.06684177
205	0x3d91e7b7	0.07124274
206	0x3d2fd1ea	0.0429248
207	0xbe138298	-0.14405286
208	0xbe8697cb	-0.26287684
209	0x3e40b915	0.18820603
210	0x3e039ade	0.12852046
211	0xbcd90428	-0.02649124
212	0x3e29b70b	0.16573732
213	0x3ca08888	0.019596353
214	0x3dfac2bb	0.12244173
215	0xbe4609cc	-0.19339675
216	0x3ddcd7cf	0.1078335
217	0x3e5632d8	0.20917833
218	0x3db7d36a	0.08975871
219	0xbe218dca	-0.15776744
220	0xbcf4774f	-0.029842047
221	0xbe26e1ec	-0.1629712
222	0xbe3e7b6e	-0.18601772
223	0x3e29c42e	0.16578743
224	0xbe8d194d	-0.27558365
225	0x3e4833bd	0.19550987
226	0xbd519ab8	-0.051172942
227	0x3e126d6c	0.14299554
228	0xbe2023dd	-0.15638681
229	0x3e26f142	0.1630297
230	0x3e858da8	0.26084638
231	0x3d09ef0c	0.03367524
232	0x3def990b	0.116991125
233	0xbe3741b1	-0.17896153
234	0xbc133d26	-0.008986747
235	0x3e143de5	0.14476736
236	0xbcefee1f	-0.02928835
237	0xbe90166b	-0.28142104
238	0xbca27180	-0.019829512
239	0x3e0658fa	0.1311988
240	0x3e691e34	0.22765428
241	0x3df2779e	0.118392214
242	0x3e16ba34	0.14719468
243	0x3d40f284	0.04710628
244	0xbe457d02	-0.19285968
245	0xbd827072	-0.063691035
246	0xbdada076	-0.08477871
247	0x3e5a8075	0.21338065
248	0xbe529aa0	-0.20566797
249	0xbede17a5	-0.43377414
250	0x3d8a46ff	0.06751823
251	0xbd7d722e	-0.06187647
252	0x3e7b920e	0.24567434
253	0x3e8cf89f	0.27533433
254	0x3e777d1c	0.24168819
255	0xbe0563a1	-0.13026287

b1.net.1.weight f4 [32]
0	0x3f84a7b7	1.0363683
1	0x3f898244	1.0742879
2	0x3f7f4188	0.9970937
3	0x3f6dc576	0.92879426
4	0x3f83d78b	1.0300153
5	0x3f80f21b	1.0073885
6	0x3f7f2a97	0.9967436
7	0x3f836c2f	1.026739
8	0x3f8631f7	1.0483998
9	0x3f81e279	1.0147239
10	0x3f833a6d	1.0252205
11	0x3f843825	1.0329634
12	0x3f7139e7	0.94228977
13	0x3f7bfe7c	0.9843519
14	0x3f8299a8	1.0203142
15	0x3f8598f8	1.0437307
16	0x3f884820	1.0647011
17	0x3f6bd586	0.92122686
18	0x3f86065f	1.0470694
19	0x3f858b5b	1.0433153
20	0x3f523809	0.8211675
21	0x3f839d66	1.0282409
22	0x3f8476a6	1.0348709
23	0x3f6b2cbd	0.9186514
24	0x3f5c9cd9	0.8617683
25	0x3f81a917	1.0129727
26	0x3f663e86	0.89939153
27	0x3f7d7944	0.9901316
28	0x3f811d93	1.008715
29	0x3f7dacbb	0.9909169
30	0x3f891c6a	1.0711796
31	0x3f7f54d2	0.997388

b1.net.1.bias f4 [32]
0	0x3c369e8b	0.011146198
1	0xbb866c96	-0.0041023
2	0xbb8f9387	-0.0043816003
3	0xbdaf6bec	-0.08565506
4	0xbc8339c4	-0.016018756
5	0x3c822543	0.015886908
6	0x3d0fcc1a	0.035106756
7	0xbca3400b	-0.019927999
8	0x3d761553	0.06007893
9	0x3d312ca0	0.04325545
10	0x3d8b01e9	0.06787474
11	0x3a98f15d	0.0011668612
12	0xbd33e6f6	-0.043921433
13	0xbbada1db	-0.0052988357
14	0x3cffd776	0.03123067
15	0x3cd6cd60	0.026220977
16	0x3d082714	0.033240393
17	0xbb014321	-0.001972385
18	0x3d6b0c7d	0.057384957
19	0x3cf75a98	0.030194566
20	0xbd8dcb0c	-0.06923494
21	0x3d35328a	0.04423765
22	0x3b9689be	0.004594057
23	0x3cb51afa	0.02210759
24	0xbdad4969	-0.084612675
25	0xbb0978e1	-0.002097659
26	0xbd17865e	-0.036993377
27	0xba1a1ef2	-0.0005879245
28	0xbc821be2	-0.015882436
29	0x3bba1644	0.005678924
30	0xbd65f7e7	-0.05614462
31	0xbd0c40f4	-0.03424163

b1.net.1.running_mean f4 [32]
0	0x3e501677	0.2032107
1	0x3d3696bc	0.044577345
2	0xbd9e90d7	-0.0774247
3	0xbc9c8c12	-0.01910976
4	0x3dfdb924	0.123888284
5	0xbebc8c0a	-0.3682559
6	0x3c3e67e8	0.011621453
7	0x3d4c08c5	0.04981305
8	0xbec9f70f	-0.39446303
9	0x3dc8e4ce	0.09809266
10	0xbd04671c	-0.032324895
11	0xbe348d80	-0.17632103
12	0xbe129050	-0.14312863
13	0xbd462294	-0.04837282
14	0x3e3b4848	0.18289292
15	0x3e1dbb53	0.1540349
16	0xbe1288ba	-0.1430997
17	0x3db2d55e	0.08732103
18	0xbe2a0f57	-0.16607414
19	0x3e923f56	0.28563946
20	0xbdc83b53	-0.0977694
21	0xbef84692	-0.4849134
22	0x3d27b18e	0.040940814
23	0x3bf7c731	0.0075615873
24	0xbdb6e044	-0.08929494
25	0x3e163b72	0.14671114
26	0x3dd6f490	0.10495865
27	0xbe1b4c60	-0.15165854
28	0x3e023fab	0.127196
29	0xbe574580	-0.21022606
30	0x3e0aba00	0.13547516
31	0x3ea90b9c	0.3301667

b1.net.1.running_var f4 [32]
0	0x3e939b3e	0.28829378
1	0x3d015004	0.03157045
2	0x3c5717f8	0.013128273
3	0x3c1e25bd	0.009652552
4	0x3dcd5676	0.10026257
5	0x3e0f0fc5	0.1397086
6	0x3b96d3ad	0.0046028704
7	0x3b9d6726	0.004803556
8	0x3f636d5a	0.8883873
9	0x3cb701c0	0.022339702
10	0x3cf6d1bf	0.030129312
11	0x3e806466	0.25076598
12	0x3cdd36c8	0.02700366
13	0x3c418a23	0.0118127195
14	0x3d814de0	0.063136816
15	0x3d3d7e90	0.046263278
16	0x3de4b2cc	0.11166915
17	0x3d21bbed	0.03948586
18	0x3e6419da	0.22275487
19	0x3ee1a5c7	0.4407179
20	0x3cf8a8fa	0.030354012
21	0x3e48f2f7	0.19623934
22	0x3c98d5fb	0.018656721
23	0x3c17682a	0.009241143
24	0x3d40ce8f	0.04707199
25	0x3e088eaf	0.1333568
26	0x3d8b2b7e	0.06795405
27	0x3e26cadf	0.16288327
28	0x3df23e70	0.11828315
29	0x3d5f7757	0.05455717
30	0x3d1a11df	0.0376147
31	0x3ecd4627	0.40092584

b1.net.3.weight f4 [64, 32, 1, 1]
0	0xbdd79108	-0.105257094
1	0x3da4b8ad	0.080430366
2	0x3d68affc	0.056808457
3	0xbe33cc16	-0.17558321
4	0xbda988f2	-0.08278073
5	0xbd2781e1	-0.040895347
6	0xbe905912	-0.28192955
7	0xbe2106fd	-0.15725322
8	0xbdcdf937	-0.100572996
9	0x3e53e2e1	0.20692016
10	0xbda1f533	-0.07908096
11	0xbe1332f1	-0.14374901
12	0x3d38f0d2	0.04515154
13	0x3de5be8b	0.11217984
14	0xbe074d2e	-0.13213035
15	0xbe4c9d12	-0.19981793
16	0x3e122801	0.14273073
17	0x3da68dd9	0.08132524
18	0xbdc88aa1	-0.09792066
19	0xbda5ebf8	-0.08101648
20	0xbd2a0bf6	-0.041515313
21	0xbd223ee9	-0.039610777
22	0x3d61fb5d	0.05517136
23	0xbd3f0430	-0.046634853
24	0xbdd0af5a	-0.10189696
25	0x3e0d8c64	0.13823086
26	0xbd4a0d50	-0.049329102
27	0x3dd458f4	0.10368529
28	0x3ce58816	0.028018992
29	0x3d802918	0.06257838
30	0x3e23f30b	0.16010682
31	0x3d122485	0.03567936
32	0x3ca41421	0.02002913
33	0xbcbf05cb	-0.023318192
34	0xbdf3cc44	-0.11904195
35	0x3c9cd633	0.019145107
36	0x3e2e697f	0.17032431
37	0xbe441d31	-0.1915176
38	0x3d005d25	0.03133883
39	0xbdd910d8	-0.10598916
40	0xbe265d80	-0.16246605
41	0x3e15d5a8	0.14632285
42	0x3bd683fb	0.006546495
43	0xbdf3bdb0	-0.119014144
44	0x3d73f62c	0.05956094
45	0x3cd3263d	0.02577507
46	0xbe0ee164	-0.13953167
47	0xbd3628b7	-0.044472422
48	0xbe43290e	-0.1905863
49	0x3df83598	0.12119597
50	0xbd9747ba	-0.07386728
51	0x3e759ded	0.23986025
52	0xbd4ca695	-0.049963553
53	0x3d910bde	0.070823416
54	0x3d844399	0.06458206
55	0x3e080fcd	0.13287278
56	0x3dcad53a	0.09903951
57	0xbd74be2f	-0.059751686
58	0x3d8d0815	0.06886307
59	0x3d1d0192	0.038331576
60	0x3e074bd2	0.13212517
61	0xbdcce341	-0.10004283
62	0xbe5f077b	-0.21780197
63	0x3dd29966	0.10283165
64	0xbd4f973a	-0.05068133
65	0x3e0f9f49	0.14025606
66	0xbd1ddbb8	-0.03853962
67	0xbbb9d8be	-0.0056715896
68	0xbda7de05	-0.08196644
69	0x3e61f513	0.22066145
70	0xbdee94c1	-0.11649466
71	0x3d0c823e	0.034303896
72	0xbe43e5b5	-0.19130595
73	0xbde52f5a	-0.11190672
74	0x3e12a999	0.14322509
75	0xbdae0bba	-0.084983304
76	0x3d4b00aa	0.04956118
77	0x3bd635b3	0.006537163
78	0x3daa25ca	0.08307989
79	0x3dc7c113	0.09753623
80	0xbde8e84b	-0.11372431
81	0xbd987840	-0.07444811
82	0xbe5f5f1f	-0.2181363
83	0xbd043884	-0.03228046
84	0xbe0c689a	-0.13711777
85	0xbd89a366	-0.06720619
86	0xbd456e1e	-0.04820072
87	0x3dad3a05	0.08458332
88	0x3c8ba0f8	0.01704453
89	0xbe5d25c3	-0.21596436
90	0x3d9ed984	0.077563316
91	0x3da801f6	0.08203499
92	0x3e27923e	0.1636438
93	0x3dc86a7d	0.09785936
94	0x3e284b42	0.16434959
95	0x3dcf9eb7	0.10137694
96	0x3d7b148f	0.061298903
97	0xbd71feb4	-0.059080794
98	0xbd8ee256	-0.06976764
99	0xbcba3e42	-0.022734765
100	0xbe06c5fc	-0.13161463
101	0x3e0ab295	0.13544686
102	0xbdc247f8	-0.09486383
103	0xbe002638	-0.1251458
104	0xbe0286c6	-0.12746724
105	0xbc774c8f	-0.015093937
106	0x39d0bb95	0.0003981261
107	0xbdf061b0	-0.117373824
108	0xbe195020	-0.14971972
109	0x3ca9e4c3	0.020738965
110	0xbe10c310	-0.1413691
111	0x3e3c21b3	0.1837223
112	0xbde26d9f	-0.11056065
113	0xbd3ca218	-0.046053022
114	0x3908ecd2	0.00013058193
115	0xbe405368	-0.18781817
116	0xbde9ce39	-0.11416287
117	0xbdfb77cf	-0.12278711
118	0xbe3f46bb	-0.18679325
119	0xbd9f0107	-0.07763868
120	0xbdc89f4c	-0.097960085
121	0xbd721ec7	-0.059111383
122	0x3d2ee044	0.042694345
123	0xbd90d3ab	-0.070716225
124	0xbe1ee17c	-0.15515703
125	0xbd17e3f4	-0.037082627
126	0x3de39be3	0.111137174
127	0x3dc8fe49	0.09814126
128	0x3d0d30f5	0.034470517
129	0x3e09c279	0.13453092
130	0xbdb5287d	-0.08845613
131	0xbc090f1a	-0.008365417
132	0xbd7135b8	-0.05888912
133	0xbe3c5fd9	-0.18395938
134	0xbd62fa6a	-0.055414595
135	0xbe21d57d	-0.15804096
136	0xbdb977db	-0.09056064
137	0x3d2e9754	0.042624786
138	0x3e08a1a7	0.13342915
139	0x3dbefadb	0.09325191
140	0xbd48a551	-0.048985783
141	0x3cfa5eef	0.030562846
142	0x3e00ff38	0.12597358
143	0x3e58b9b5	0.21164592
144	0xbb8eb0c2	-0.0043545673
145	0x3d82f83a	0.06395002
146	0xbd17d699	-0.03706989
147	0x3e4571dc	0.19281715
148	0x3c9855ed	0.01859566
149	0x3d8360d7	0.06414955
150	0x3da6af18	0.08138865
151	0x3e17f99e	0.14841315
152	0xbe1ad3b8	-0.15119827
153	0x3e0d6148	0.13806641
154	0xbd7beb20	-0.06150353
155	0xbe8f5908	-0.27997613
156	0xbcf24931	-0.029575916
157	0x3dcbe71a	0.099561885
158	0xbdb89254	-0.09012285
159	0xbc225f9b	-0.009910489
160	0x3dd56477	0.10419553
161	0xbe00158b	-0.12508218
162	0x3e289d82	0.16466334
163	0xbca36de7	-0.019949866
164	0x3da6ce80	0.081448555
165	0xbd7869f8	-0.060647935
166	0xbe257c79	-0.16160764
167	0x3b7a6adf	0.0038210673
168	0xbd7886b2	-0.06067533
169	0x3d12a71f	0.03580391
170	0x3d8f30c4	0.06991723
171	0xbe130e21	-0.14360859
172	0xbe06b759	-0.13155879
173	0xbd7b165b	-0.061300617
174	0x3dccc47b	0.09998413
175	0x3e09e721	0.13467075
176	0x3d8839d3	0.06651654
177	0xbdcd1155	-0.100130714
178	0xbdd318c6	-0.103074595
179	0x3de1378b	0.10996922
180	0x3da6e8fb	0.08149906
181	0x3dc8b88e	0.09800826
182	0xbd7ed5e5	-0.062215704
183	0x3dadb104	0.08481029
184	0x3d39a88b	0.04532675
185	0x3d49da6e	0.049280576
186	0xbdfa153c	-0.122110814
187	0xbd055908	-0.03255561
188	0xbe065c2a	-0.13121095
189	0x3e5bc245	0.21460827
190	0xbdd2c4f1	-0.1029147
191	0x3d87a319	0.06622905
192	0x3e0e116f	0.13873838
193	0x3e0e85f6	0.1391829
194	0x3d5429af	0.051797565
195	0x3c7a0a11	0.015261189
196	0xbdce2e3b	-0.100674115
197	0x3da8b9b4	0.08238545
198	0x3d5021e7	0.05081358
199	0x3d1f6a71	0.03891987
200	0x3e216ac6	0.15763387
201	0x3df1fd78	0.118159235
202	0xbd9421f1	-0.07233036
203	0x3c03dd6e	0.008048398
204	0xbad07ed3	-0.0015906937
205	0xbe594810	-0.21218896
206	0xbdefe6c7	-0.11713939
207	0x3d64b988	0.055841
208	0xbdc89b9b	-0.097953044
209	0x3ddafe46	0.1069303
210	0xbdf10a96	-0.11769597
211	0xbe31c9fb	-0.17362206
212	0x3d069ba2	0.032863267
213	0x3e4eb4e2	0.20186189
214	0x3c919af5	0.017774085
215	0xbd90a930	-0.0706352
216	0xbdce4064	-0.10070875
217	0x3e0b55e0	0.13606977
218	0x3cfe8e57	0.031073732
219	0x3d9c2737	0.07624667
220	0xbd1fd3b5	-0.03902026
221	0x3c2c28b5	0.010507752
222	0xbd023855	-0.031792004
223	0x3dee5d1b	0.11638852
224	0x3e3800e4	0.1796909
225	0x3d82ca53	0.063862465
226	0x3df95a53	0.12175431
227	0x3df187b1	0.11793459
228	0x3cc9c675	0.024630764
229	0x3d9b6bf3	0.07588949
230	0xbdd16acb	-0.10225447
231	0x3df1e166	0.118105695
232	0xbe323dad	-0.1740634
233	0x3d03f8c5	0.032219667
234	0x3e26743b	0.16255276
235	0x3e1db415	0.15400727
236	0x3d40521c	0.046953306
237	0x3d796e99	0.06089649
238	0x3e13e038	0.14441001
239	0x3ca03021	0.0195542
240	0x3dd02290	0.10162842
241	0x3d7cf15c	0.061753616
242	0xbc9e3154	-0.01931063
243	0xbd9b1302	-0.07571985
244	0xbd547355	-0.0518678
245	0x3deed427	0.116615586
246	0xbd25337e	-0.04033231
247	0x3da41c7a	0.08013244
248	0x3b5bfab3	0.0033566176
249	0x3d9c9fa3	0.07647636
250	0x3dfa6282	0.1222582
251	0x3e2c6742	0.16836265
252	0x3dcd0f82	0.100127235
253	0xbbccca88	-0.0062497295
254	0xba5ac879	-0.0008345913
255	0x3e07a3b5	0.13246043

b1.net.4.weight f4 [64]
0	0x3f679f09	0.90477043
1	0x3f8393e8	1.0279512
2	0x3f650a5d	0.8946894
3	0x3f7b3417	0.9812636
4	0x3f6b87bb	0.92003983
5	0x3f8082a7	1.0039872
6	0x3f7c8518	0.98640585
7	0x3f635232	0.88797295
8	0x3f826e2f	1.0189875
9	0x3f6cbcd9	0.9247566
10	0x3f821e95	1.0165583
11	0x3f62ea5d	0.8863886
12	0x3f7d800e	0.9902352
13	0x3f6fc765	0.93663627
14	0x3f740c89	0.9533163
15	0x3f739785	0.95153075
16	0x3f6db2db	0.92851037
17	0x3f7b7368	0.9822297
18	0x3f6c1924	0.9222586
19	0x3f7f0916	0.9962324
20	0x3f7fed6f	0.9997167
21	0x3f73c1c3	0.9521753
22	0x3f818612	1.011904
23	0x3f7663ed	0.96246225
24	0x3f7327ce	0.9498261
25	0x3f63083a	0.8868443
26	0x3f50d921	0.8158131
27	0x3f61a20e	0.881379
28	0x3f804360	1.0020561
29	0x3f813a9c	1.0096011
30	0x3f8167c4	1.0109792
31	0x3f6a792a	0.9159113
32	0x3f7e1e03	0.99264544
33	0x3f735d25	0.95064
34	0x3f77e8c3	0.9683954
35	0x3f87d315	1.0611292
36	0x3f84df91	1.0380727
37	0x3f458f11	0.77171427
38	0x3f76524e	0.96219337
39	0x3f6c082c	0.9219997
40	0x3f838870	1.0276012
41	0x3f7c1cac	0.9848125
42	0x3f5535b1	0.8328505
43	0x3f86a92e	1.052038
44	0x3f816171	1.0107862
45	0x3f7a61f4	0.97805715
46	0x3f622a41	0.88345724
47	0x3f7bf19d	0.9841555
48	0x3f516c89	0.81806237
49	0x3f82a3e6	1.0206268
50	0x3f7be1c4	0.98391366
51	0x3f82eb62	1.0228083
52	0x3f6f34f1	0.9344016
53	0x3f53e5d3	0.8277256
54	0x3f81a0b6	1.012717
55	0x3f7c8e40	0.98654556
56	0x3f85ea25	1.046208
57	0x3f73f415	0.95294315
58	0x3f6e98d4	0.9320195
59	0x3f60ba7f	0.8778457
60	0x3f836521	1.0265237
61	0x3f6f06b6	0.93369615
62	0x3f77d64a	0.96811354
63	0x3f8307fb	1.023681

b1.net.4.bias f4 [64]
0	0xbdb09582	-0.08622266
1	0x3c204986	0.009783154
2	0xbdbfa3af	-0.09357392
3	0x3cf3654f	0.029711394
4	0x3d9e1637	0.07719081
5	0xbcad533f	-0.021157859
6	0x3c9ed1ca	0.019387145
7	0xbdc33ca4	-0.09533051
8	0xbbf6ebcd	-0.007535434
9	0x3d8dd727	0.06925803
10	0xbc498f25	-0.012302195
11	0x3dc417dc	0.09574863
12	0xbd0e1d54	-0.03469594
13	0x3d660b02	0.05616284
14	0xbd4213e9	-0.04738227
15	0xbd417c9b	-0.047237974
16	0x3d815c1f	0.06316399
17	0xbcd0692c	-0.025440775
18	0x3d9597f1	0.07304371
19	0xbcfd7cec	-0.030943356
20	0xbc8e8a96	-0.017400067
21	0x3d49f70d	0.04930787
22	0xbc9aff50	-0.01892057
23	0x3d24fc65	0.040279765
24	0xbd59ea41	-0.053201918
25	0x3dbc4c41	0.09194232
26	0x3e1a979c	0.15096897
27	0x3dce1c56	0.100639984
28	0x3cb959a9	0.022625761
29	0x3c6d244b	0.014473985
30	0x3c8903f3	0.016725516
31	0x3d7810e8	0.060562998
32	0xbd253693	-0.04033525
33	0x3d6ebc39	0.058284972
34	0xbd123013	-0.03569038
35	0x3ba32f57	0.0049800086
36	0xbba3450b	-0.004982596
37	0xbe331561	-0.17488624
38	0x3d29ced9	0.04145703
39	0xbd9fb566	-0.07798271
40	0x3be69014	0.0070362184
41	0x3cb22848	0.021747723
42	0xbe163230	-0.14667583
43	0x3c01b40f	0.0079164645
44	0xbc869a7f	-0.016431091
45	0xbca86118	-0.02055411
46	0xbdd48d4b	-0.10378512
47	0xbc7ee01c	-0.0155563615
48	0xbe21eb7a	-0.15812483
49	0xbc356e7f	-0.011073708
50	0x3cf1e929	0.029530125
51	0xbc3c246b	-0.011483292
52	0xbd70c4ce	-0.058781438
53	0xbe0f2bc9	-0.13981546
54	0x3c02c01b	0.007980372
55	0xbcfd7ceb	-0.030943355
56	0x3ca2a511	0.0198541
57	0xbd31d0c2	-0.043411978
58	0xbd89e945	-0.06733946
59	0xbdd63128	-0.104585946
60	0xbbc7b723	-0.0060948296
61	0xbd6f2482	-0.058384426
62	0x3d1f92df	0.038958427
63	0xbc5f740c	-0.013638508

b1.net.4.running_mean f4 [64]
0	0xbe2a8a41	-0.16654302
1	0xbdacf56a	-0.084452465
2	0xbc803f04	-0.015655048
3	0xbef4b6f3	-0.4779583
4	0x3dc058d4	0.093919426
5	0x3d878cf2	0.0661868
6	0x3e24a888	0.16079915
7	0x3f0afe8e	0.5429467
8	0xbe866d7a	-0.262554
9	0xbea816d8	-0.32829928
10	0xbe2b9335	-0.16755374
11	0x3d9199d1	0.07109416
12	0x3e3944df	0.18092678
13	0x3d0d3de1	0.03448284
14	0xbddc3ea9	-0.10754139
15	0x3dbfc2c2	0.09363319
16	0xbf044f8d	-0.51683885
17	0xbdc676dd	-0.0969064
18	0x3e0b2ad0	0.1359055
19	0x3de1229e	0.10992931
20	0xbcd5433a	-0.026033033
21	0xbcf2bd58	-0.029631302
22	0x3eee198c	0.46503866
23	0xbeab40f6	-0.33448
24	0x3e3a10df	0.18170498
25	0x3ececff4	0.4039303
26	0xbe4e965e	-0.20174548
27	0x3c09bc46	0.008406704
28	0x3d660d01	0.056164745
29	0x3e761e4c	0.24034995
30	0xbe7dd1b1	-0.24787022
31	0xbd437e6c	-0.047727987
32	0x3e5e2c17	0.21696506
33	0x3bbfe2b7	0.005855884
34	0x3bca2033	0.006168389
35	0xbdd2a4b0	-0.10285318
36	0x3e1aaa2a	0.15103975
37	0x3f086f0e	0.53294456
38	0x3e0ddccb	0.13853757
39	0x3e8fbc47	0.28073332
40	0xbd580f6e	-0.05274909
41	0xbea230af	-0.31677768
42	0xbe446a62	-0.19181207
43	0x3ddbf31c	0.10739729
44	0x3dbe7dd0	0.093013406
45	0x3f06aa31	0.5260344
46	0x3f0c26c4	0.5474665
47	0x3e58b42a	0.21162477
48	0xbd4cbb09	-0.049983058
49	0x3ec3008b	0.38086352
50	0xbd7e2eab	-0.062056225
51	0xbed18aaf	-0.4092612
52	0x3e31cf12	0.17364147
53	0x3ea1d7ca	0.31609946
54	0xba84e6bc	-0.0010139565
55	0xbd511fd9	-0.051055763
56	0x3e15c3cf	0.14625476
57	0x3df8e8ec	0.12153801
58	0xbd778952	-0.060433693
59	0x3eb8ba15	0.3607947
60	0x3d823c79	0.063591905
61	0x3e5a39d4	0.21311122
62	0x3e661fdc	0.22473091
63	0xbdc5dd90	-0.096614

b1.net.4.running_var f4 [64]
0	0x3e6c9df3	0.23107128
1	0x3ed98cd8	0.42490268
2	0x3dd0bfaf	0.10192811
3	0x3e8363fb	0.25662217
4	0x3e268e7e	0.16265294
5	0x3e0c8f13	0.13726453
6	0x3d6cc6e7	0.057806876
7	0x3e94215e	0.28931707
8	0x3de2d9e5	0.11076716
9	0x3eebbcca	0.46042472
10	0x3deb1108	0.11477858
11	0x3e7443d5	0.23854001
12	0x3e67739e	0.22602698
13	0x3dbffb6f	0.09374129
14	0x3e170139	0.1474656
15	0x3e33c4c5	0.1755553
16	0x3e9ceec6	0.3065092
17	0x3db65fb0	0.0890497
18	0x3e2d272c	0.16909474
19	0x3dfcf2e9	0.12351019
20	0x3e45bdf4	0.19310743
21	0x3ee7e1fe	0.45289606
22	0x3eb800e5	0.35938182
23	0x3d5bd5c4	0.05367066
24	0x3e789850	0.24276853
25	0x3e603763	0.21896128
26	0x3ebd27d4	0.3694445
27	0x3e078678	0.1323489
28	0x3e771e2b	0.24132602
29	0x3d8ae66f	0.06782233
30	0x3e9abbcc	0.30221403
31	0x3e0a7a73	0.13523273
32	0x3e586e67	0.21135865
33	0x3f6776d6	0.90415704
34	0x3dd7edbf	0.10543393
35	0x3db77be6	0.089591786
36	0x3efdae8b	0.49547228
37	0x3f07ff23	0.5312368
38	0x3ee965fd	0.45585623
39	0x3e766602	0.2406235
40	0x3deda2f2	0.11603345
41	0x3e836908	0.2566607
42	0x3dc95043	0.09829762
43	0x3d9e5ee5	0.077329434
44	0x3ee71fe2	0.45141512
45	0x3f047535	0.51741344
46	0x3f05c890	0.5225916
47	0x3f233965	0.6375945
48	0x3db059e7	0.086108975
49	0x3edd0cc5	0.43173805
50	0x3eac392f	0.33637378
51	0x3ddac62c	0.106823295
52	0x3e42bc04	0.19017035
53	0x3e8b5f9b	0.2722138
54	0x3ecba9f6	0.39778107
55	0x3dde5340	0.108557224
56	0x3deb67d0	0.1149441
57	0x3e25a607	0.16176616
58	0x3de28cf7	0.11062043
59	0x3e2e01be	0.16992852
60	0x3e0b1fce	0.13586351
61	0x3e0cf175	0.13763984
62	0x3e085ad0	0.13315892
63	0x3dc06d71	0.09395874

b2.net.0.weight f4 [64, 1, 3, 3]
0	0x3e938b79	0.28817347
1	0x3e8153ed	0.25259343
2	0x3d614eb6	0.055006705
3	0x3cd00c24	0.025396414
4	0x3e2bf994	0.16794425
5	0x3e8b3c71	0.2719455
6	0x3e610920	0.21976137
7	0x3e94d0c8	0.29065537
8	0x3e72c7bb	0.23709004
9	0x3ce6345d	0.02810114
10	0x3e2d7580	0.16939354
11	0xbd237e89	-0.039915595
12	0x3e238bdb	0.1597132
13	0xbe9b7d80	-0.30369186
14	0xbde0dbce	-0.109794244
15	0x3ea9d1c5	0.33167854
16	0xbd2f4472	-0.042789884
17	0x3d4087e8	0.04700461
18	0xbbdc999f	-0.0067321802
19	0xbd8ec73b	-0.06971594
20	0xbdad5f9b	-0.08465501
21	0x3ea0f5ed	0.31437626
22	0x3eac346e	0.3363375
23	0x3eb74925	0.35797992
24	0xbe6d6d60	-0.23186255
25	0x3e446979	0.1918086
26	0xbe3d0052	-0.18457153
27	0x3e07d753	0.13265733
28	0x3de5701c	0.11203024
29	0x3ba7f2c6	0.0051253764
30	0x3d801373	0.0625371
31	0xbeae3ea0	-0.34032154
32	0x3e1aace7	0.1510502
33	0x3df23cce	0.11828004
34	0xbe04749f	-0.12935112
35	0x3e8eb2c0	0.2787075
36	0x3ea0fac7	0.31441328
37	0xbb880d63	-0.0041519864
38	0x3e4762e1	0.19471313
39	0xbe99aff2	-0.30017048
40	0xbe3b126a	-0.18268743
41	0x3ddf252e	0.10895763
42	0xbd878480	-0.06617069
43	0x3dcf60fe	0.10125922
44	0x3dd58f07	0.10427671
45	0xbe6287e1	-0.22122146
46	0xbdf667e2	-0.12031533
47	0xbe4c3d89	-0.19945349
48	0x3e68ae41	0.22722723
49	0xbeacf4c3	-0.33780488
50	0xbbd0395e	-0.006354495
51	0xbc60d37d	-0.013722298
52	0xbca7b52e	-0.020472135
53	0x3c9691e0	0.018380105
54	0x3e5edb38	0.21763313
55	0x3ea0bea2	0.3139544
56	0x3e3f5c94	0.1868766
57	0x3e22bc63	0.15892176
58	0x3e80fd9f	0.25193498
59	0x3d9a8e5e	0.07546686
60	0xbe48a619	-0.19594611
61	0x3d39a166	0.045319937
62	0x3e3496a2	0.17635587
63	0x3dc90987	0.0981627
64	0x3e65287c	0.22378725
65	0x3e5082c4	0.20362383
66	0x3e62065d	0.2207274
67	0x3e0a023b	0.13477413
68	0xbd82023e	-0.06348084
69	0xbe25589e	-0.16147086
70	0x3e732376	0.23743996
71	0x3e3bfa8e	0.18357298
72	0xbdca2ce6	-0.09871845
73	0xbe74d509	-0.23909391
74	0x3c51c8b6	0.012804201
75	0xbe0d5363	-0.13801341
76	0xbe2f32d7	-0.17109238
77	0xbdc10217	-0.09424227
78	0xbe4d08ce	-0.2002289
79	0xbe9b5e33	-0.30345306
80	0xbe05735e	-0.1303229
81	0x3e183bb1	0.1486652
82	0x3e9966e3	0.2996131
83	0x3cf0009c	0.029297166
84	0x3e7c427d	0.24634738
85	0xbe1f41c3	-0.1555243
86	0xbe8096ea	-0.25115138
87	0xbe21e00c	-0.15808123
88	0xbe80cfce	-0.25158542
89	0xbec47b7e	-0.38375467
90	0xbe6fcf0c	-0.23418826
91	0xbcffedb1	-0.03124127
92	0x3e40b66d	0.1881959
93	0xbe9495ca	-0.2902053
94	0x3cfd3b0a	0.030911941
95	0xbe9b366b	-0.30314955
96	0xbe7105ef	-0.2353742
97	0xbdc3952d	-0.095499374
98	0x3e8127ce	0.2522568
99	0x3cca48c2	0.024692897
100	0xbdfd74a2	-0.123757616
101	0x3e750a42	0.23929694
102	0xbd7bad6c	-0.061444685
103	0xbe0f7ad1	-0.14011694
104	0xbe8259a8	-0.25459027
105	0x3ecb4a9b	0.39705357
106	0x3e80b52b	0.2513822
107	0x3d00fd79	0.03149173
108	0x3e72e2b4	0.23719293
109	0xbdc63d15	-0.09679619
110	0x3e4da617	0.2008289
111	0xbde4cc68	-0.111718
112	0x3e3ac38b	0.18238656
113	0xbc6c450b	-0.014420758
114	0xbe922f4c	-0.2855171
115	0xbe904e01	-0.28184512
116	0x3d517eda	0.051146366
117	0xbdf6c615	-0.120495
118	0xbe19bf60	-0.1501441
119	0xbdfc8041	-0.1232915
120	0x3d31cb82	0.04340697
121	0xbdc99058	-0.098419845
122	0xbe904638	-0.28178573
123	0xbb8aba0b	-0.004233604
124	0xbe152d6e	-0.14568111
125	0x3d10f9de	0.035394542
126	0x3eade7db	0.33965954
127	0x3e874d5b	0.26426205
128	0xbe40197a	-0.18759719
129	0x3e893866	0.2680084
130	0x3d93634f	0.07196676
131	0x3dec8434	0.11548653
132	0xbd8d0790	-0.06886208
133	0x3ebd0382	0.3691674
134	0x3ccee17a	0.025254
135	0x3e846a02	0.25862128
136	0x3de66ca8	0.11251193
137	0x3e8f49c9	0.2798598
138	0xbe1ef2f9	-0.15522374
139	0xbd22b3ee	-0.039722376
140	0xbe4fc126	-0.20288524
141	0xbe4ea5e9	-0.20180477
142	0xbd1927f4	-0.037391618
143	0xbe02b4c6	-0.12764272
144	0x3df445c5	0.1192737
145	0xbe826726	-0.2546932
146	0x3e2aa2ae	0.1666362
147	0x3e404c72	0.18779162
148	0x3e06ac9b	0.13151781
149	0x3e90302c	0.28161752
150	0xbe283d06	-0.16429529
151	0x3e199fe5	0.15002401
152	0x3ea38672	0.3193851
153	0x3e1c2856	0.15249762
154	0x3dabe44b	0.08393153
155	0x3ea5a44c	0.3235191
156	0x3d4a557f	0.04939794
157	0x3e04ec0b	0.12980668
158	0x3e9ea77f	0.30987164
159	0xbd483a4c	-0.04888372
160	0x3cf0e70b	0.029407045
161	0x3e900f5e	0.28136724
162	0x3d9643fc	0.07337186
163	0x3c92214d	0.017838145
164	0xbe62f971	-0.22165467
165	0x3df5acb9	0.11995835
166	0xbe6684d2	-0.22511604
167	0xbe032811	-0.12808253
168	0xbe73641f	-0.23768662
169	0x3e9a1d1b	0.3010033
170	0xbd9cc209	-0.07654197
171	0x3cd33265	0.025780866
172	0xbdc3882e	-0.095474586
173	0xbd8fde2d	-0.070247985
174	0x3e2a6382	0.16639522
175	0xbe886526	-0.2663967
176	0xbbb906e6	-0.0056465743
177	0x3e49f7d3	0.19723444
178	0x3e950100	0.29102325
179	0xbe1314cd	-0.14363404
180	0xbe697e30	-0.22802043
181	0x3bf008b1	0.007325255
182	0xbe8b6100	-0.27222443
183	0x3d0cc8e7	0.034371283
184	0xbe0eb704	-0.13937002
185	0x3e81fa20	0.25386143
186	0x3e542794	0.20718223
187	0x3e5e691d	0.21719785
188	0x3e68d2ba	0.22736636
189	0x3abf0a8b	0.0014575286
190	0x3e0f515a	0.13995877
191	0x3eab1b15	0.334191
192	0x3e22ac49	0.15886034
193	0xbd842760	-0.06452823
194	0xbe82b1cf	-0.25526282
195	0xbe803874	-0.2504307
196	0x3e3a47df	0.18191479
197	0xbde3cefc	-0.111234635
198	0xbe7c9648	-0.24666703
199	0x3cf3854c	0.029726647
200	0xbecefe79	-0.40428522
201	0xbdcdba5e	-0.10045312
202	0xbd49e25c	-0.04928814
203	0xbe15fd6b	-0.14647453
204	0xbe3da286	-0.18519029
205	0xbe5abed4	-0.21361858
206	0x3e32e636	0.17470631
207	0xbd69f51d	-0.057118524
208	0xbeb30aa1	-0.34969047
209	0x3e030f5c	0.12798828
210	0xbe9cc932	-0.3062225
211	0x3d2276fc	0.039664254
212	0xbe0fd82b	-0.14047305
213	0x3dd9a005	0.106262244
214	0x3e3ff198	0.18744504
215	0xbe7f1a66	-0.24912414
216	0xbe79db80	-0.24400139
217	0x3e18b0a4	0.14911133
218	0x3e8f98d1	0.28046277
219	0x3e5b63fc	0.2142486
220	0x3e2eddc4	0.17076784
221	0x3e85a67b	0.26103577
222	0xbc287908	-0.010282762
223	0xbe9c4931	-0.3052459
224	0x3e0eb878	0.13937557
225	0xbe8a36f2	-0.26995045
226	0x3dc19308	0.09451872
227	0x3e1acab6	0.1511639
228	0xbeacced5	-0.3375155
229	0xbdf37066	-0.11886673
230	0xbdccf16a	-0.100069836
231	0x3ddfea4a	0.10933359
232	0xbe5f0180	-0.21777916
233	0x3e875046	0.2642843
234	0xbe8c3253	-0.27382144
235	0xbded0d1e	-0.115747675
236	0x3e2fc25b	0.17163984
237	0xbebf38ab	-0.37347922
238	0xbe59c10c	-0.21265048
239	0x3d1f1d17	0.0388461
240	0xbd23c3a6	-0.039981507
241	0x3d8072da	0.06271906
242	0x3e9644ff	0.29349515
243	0x3dc786ba	0.09742494
244	0xbcc1c102	-0.023651604
245	0x3d6ae86b	0.057350557
246	0x3e22468b	0.15847223
247	0x3e13305a	0.14373913
248	0xbd2464fb	-0.040135365
249	0x3e3cc250	0.184335
250	0x3d4f2349	0.05057076
251	0xbd69d7e6	-0.057090662
252	0x3ccc6191	0.024948867
253	0xbe335371	-0.17512299
254	0xbe43d962	-0.19125894
255	0xbe30af54	-0.17254382

b2.net.1.weight f4 [64]
0	0x3f8d6519	1.1046478
1	0x3f81f412	1.0152609
2	0x3f7a0129	0.9765802
3	0x3f65717b	0.8962628
4	0x3f6f6b53	0.9352314
5	0x3f8362dd	1.0264546
6	0x3f75bab9	0.9598804
7	0x3f85f41d	1.0465122
8	0x3f75a839	0.9595981
9	0x3f6d86b7	0.92783684
10	0x3f706ad6	0.9391302
11	0x3f7c8bf1	0.98651034
12	0x3f7eafb9	0.9948688
13	0x3f7603d1	0.96099573
14	0x3f80e168	1.0068789
15	0x3f7df34a	0.99199355
16	0x3f64ea7b	0.8942029
17	0x3f78a88d	0.9713219
18	0x3f6fd68b	0.9368674
19	0x3f7ce4d6	0.98786676
20	0x3f8d78ba	1.1052468
21	0x3f826f01	1.0190126
22	0x3f92d8a1	1.147236
23	0x3f77919e	0.9670657
24	0x3f80a93e	1.0051649
25	0x3f7cf20d	0.9880684
26	0x3f7b1b42	0.9808847
27	0x3f6e6a58	0.9313102
28	0x3f8d1411	1.1021749
29	0x3f71c648	0.9444318
30	0x3f78d7fc	0.97204566
31	0x3f84b19a	1.03667
32	0x3f8d3e20	1.1034584
33	0x3f83f89c	1.0310245
34	0x3f7cd306	0.98759496
35	0x3f777b45	0.9667247
36	0x3f9026ed	1.1261879
37	0x3f877e87	1.0585488
38	0x3f6d2ab5	0.9264329
39	0x3f85fe66	1.0468261
40	0x3f7832a2	0.9695226
41	0x3f6bfec3	0.9218561
42	0x3f932be1	1.1497766
43	0x3f84a113	1.0361656
44	0x3f830c7a	1.0238183
45	0x3f7fcc7f	0.9992141
46	0x3f7fdadb	0.9994332
47	0x3f7b5a05	0.98184234
48	0x3f919735	1.137427
49	0x3f7554da	0.958326
50	0x3f71def4	0.94480824
51	0x3f6f95b5	0.9358781
52	0x3f88fd4d	1.0702301
53	0x3f7cfadc	0.9882028
54	0x3f7ae8a0	0.9801121
55	0x3f62874f	0.88487715
56	0x3f858902	1.0432436
57	0x3f810c95	1.0081965
58	0x3f831c38	1.0242987
59	0x3f7c623b	0.9858739
60	0x3f8be294	1.0928521
61	0x3f84257c	1.0323939
62	0x3f684179	0.90724903
63	0x3f763f7b	0.96190614

b2.net.1.bias f4 [64]
0	0x3d30003f	0.042968985
1	0x3c24da32	0.010061787
2	0xbca54bcb	-0.020177742
3	0x3c6bf1fc	0.014400955
4	0x3d21aea0	0.039473176
5	0x3cdf87d8	0.027286455
6	0xbd7e30bd	-0.0620582
7	0xbd67386e	-0.0564503
8	0xbd004d78	-0.03132388
9	0x3cd5e491	0.026109966
10	0xbd32f7a0	-0.043693185
11	0x3d15ad89	0.03654245
12	0xbc33dd71	-0.010978089
13	0x3c2417ca	0.010015437
14	0x3cdeb1e1	0.027184429
15	0x3c329906	0.010900741
16	0xbd4ec8b8	-0.05048439
17	0x3ca4ff95	0.020141402
18	0xbd178499	-0.03699169
19	0xbd2c2efc	-0.042036995
20	0x3c5052c6	0.012715047
21	0x3b5c2bd4	0.003359546
22	0x3e1b6ba7	0.15177785
23	0xbd0e2020	-0.034698606
24	0xbc7a9a0c	-0.015295517
25	0xbc1bb2a7	-0.009503043
26	0x3c9bbe30	0.019011587
27	0x3d3e3e36	0.046446048
28	0x3bf310d6	0.0074177785
29	0x3d5bdec9	0.05367926
30	0x3c02ebee	0.00799082
31	0x3d08d845	0.033409376
32	0x3de525a0	0.11188817
33	0xbd636467	-0.055515673
34	0x3dbc46ec	0.09193215
35	0x3c9910a4	0.018684693
36	0xbd2a86bd	-0.041632403
37	0xbdd414d9	-0.10355539
38	0xbd2f2d41	-0.042767767
39	0x3c2be4fb	0.010491605
40	0xbc41c4df	-0.011826723
41	0xbd635e72	-0.055509992
42	0xbd8fab7c	-0.0701513
43	0xbc6da28d	-0.014504087
44	0xbc408cf7	-0.011752359
45	0x3cff5ab9	0.03117119
46	0xbda9de55	-0.082943596
47	0xbc899337	-0.01679383
48	0xbd770d57	-0.060315456
49	0xbbcfc6e6	-0.006340849
50	0xbd158d1a	-0.036511518
51	0xbc7aa739	-0.015298658
52	0x3c3041e5	0.010757898
53	0xbd132c67	-0.035931017
54	0x3d25a17d	0.04043721
55	0xbd283554	-0.041066483
56	0x3d4a501c	0.049392805
57	0xbca520ec	-0.0201573
58	0xbbb48048	-0.0055084564
59	0xbe11ee02	-0.14250949
60	0x3daca0de	0.084291205
61	0x3d8932a7	0.06699114
62	0xbd1b0b21	-0.03785241
63	0xbd9d6620	-0.076854944

b2.net.1.running_mean f4 [64]
0	0x3eacb589	0.3373225
1	0x3da3ee38	0.08004421
2	0x3e3940db	0.18091147
3	0x3ddcdbb5	0.10784093
4	0x3a08ae90	0.0005214
5	0xbe1b09f9	-0.15140523
6	0x3e900a88	0.28133035
7	0x3e61962f	0.22029947
8	0xbf013554	-0.50472
9	0xbe2dfe11	-0.1699145
10	0xbe45264d	-0.19252892
11	0x3dee8435	0.1164631
12	0xbcfa0dc6	-0.030524146
13	0xbe8fdaf5	-0.28096738
14	0x3e961984	0.29316342
15	0xbd2f9099	-0.04286251
16	0x3e9759ab	0.295606
17	0x3e9d07d4	0.30670035
18	0xbdea304a	-0.11434992
19	0x3cf643bc	0.030061595
20	0x3ddc2c3b	0.10750624
21	0x3ce02db4	0.027365543
22	0xbe90eb75	-0.2830464
23	0xbe367502	-0.17818072
24	0x3e2a6291	0.16639163
25	0xbdfed4ef	-0.124429576
26	0xbe24750c	-0.16060275
27	0x3e375116	0.17902026
28	0xbe03494f	-0.12820934
29	0x3ef8fce5	0.48630443
30	0x3e81ad81	0.25327685
31	0xbdd96946	-0.106157824
32	0xbedde086	-0.4333536
33	0xbd9e16d5	-0.077191986
34	0x3e435fad	0.19079466
35	0xbebf6dec	-0.3738855
36	0xbd5036e2	-0.05083359
37	0x3caa71e6	0.020806264
38	0x3cac7d16	0.02105574
39	0x3db6cff2	0.08926381
40	0xbdbfba3e	-0.09361695
41	0x3ddedad7	0.10881584
42	0x3d1385b7	0.036016192
43	0xbe3896fe	-0.18026349
44	0x3caa108a	0.02075984
45	0xbc8c177e	-0.017101046
46	0xbce8a9ce	-0.028401282
47	0xbe164f06	-0.14678583
48	0x3dc06591	0.09394372
49	0x3d173a35	0.036920745
50	0x3eb1f9de	0.34760946
51	0xbd0550ea	-0.03254787
52	0x3da35e7a	0.07977004
53	0xbd6884ab	-0.056767147
54	0xbd4ab414	-0.049488142
55	0xbe25925c	-0.16169113
56	0xbe7931b5	-0.24335368
57	0x3d8ec5d1	0.06971324
58	0x3e49376b	0.19650047
59	0x3c116fbd	0.008876738
60	0xbef898c2	-0.48554045
61	0xbeacfe13	-0.33787593
62	0x3d6b4f9d	0.057448972
63	0xbdcebe56	-0.100948974

b2.net.1.running_var f4 [64]
0	0x3e3c2c24	0.18376213
1	0x3da41914	0.08012596
2	0x3e4dc1b1	0.20093419
3	0x3c60a9d6	0.013712367
4	0x3dc8adad	0.09798751
5	0x3da88ae4	0.08229616
6	0x3e93a070	0.28833342
7	0x3e3a6a50	0.18204618
8	0x3e69208e	0.22766325
9	0x3d8f5a01	0.06999589
10	0x3dbe6c6e	0.09298025
11	0x3e212cee	0.15739796
12	0x3de2216b	0.1104153
13	0x3d36b7c6	0.044608854
14	0x3e63dca3	0.22252135
15	0x3de50d50	0.1118418
16	0x3d977a18	0.073963344
17	0x3e2940b5	0.1652859
18	0x3d907dba	0.070552304
19	0x3da827b0	0.08210695
20	0x3e1ccdc4	0.15312868
21	0x3d3cd199	0.046098325
22	0x3ecc00bb	0.39844307
23	0x3da6dd64	0.08147696
24	0x3e7580ca	0.2397491
25	0x3e191432	0.1494911
26	0x3d3b2c54	0.04569657
27	0x3d090cea	0.03345958
28	0x3e0be00f	0.1365969
29	0x3f0f3ca9	0.55951935
30	0x3d1b3a81	0.03789759
31	0x3dcf1548	0.10111481
32	0x3f31b5e7	0.69418186
33	0x3da000f5	0.078126825
34	0x3e3805ce	0.17970964
35	0x3e245654	0.16048557
36	0x3e0c37bb	0.13693134
37	0x3d99e136	0.07513659
38	0x3dbbcd50	0.091700196
39	0x3e28a21b	0.16468088
40	0x3df67947	0.120348506
41	0x3ca781f7	0.020447714
42	0x3ddb7ba4	0.10716942
43	0x3e120fd8	0.14263856
44	0x3defa3b3	0.11701145
45	0x3d0be334	0.034152225
46	0x3d0f7da2	0.035031922
47	0x3e9b2b1e	0.30306333
48	0x3e16117c	0.14655107
49	0x3d876d6f	0.0661267
50	0x3e0befcf	0.13665698
51	0x3d4e99df	0.05043971
52	0x3dd84208	0.105594695
53	0x3de92f1a	0.11385937
54	0x3d6fcaca	0.058543004
55	0x3d9bf5ea	0.07615264
56	0x3dd685ed	0.10474763
57	0x3d9d7966	0.076891705
58	0x3e818885	0.2529947
59	0x3de16323	0.11005237
60	0x3f0f3804	0.5594485
61	0x3ed1b9ac	0.4096197
62	0x3d7a17f6	0.061058007
63	0x3d8cd5a7	0.068766885
